2018-12-12_16:11:38 - Visdom server http://localhost:8097
2018-12-12_16:11:39 - ConvEncoderDense(
  (_encoder): Sequential(
    (0): Conv2d(3, 32, kernel_size=(8, 8), stride=(4, 4))
    (1): ReLU(inplace)
    (2): Conv2d(32, 64, kernel_size=(6, 6), stride=(3, 3))
    (3): ReLU(inplace)
    (4): Conv2d(64, 128, kernel_size=(4, 4), stride=(2, 2))
    (5): ReLU(inplace)
  )
)
2018-12-12_16:11:39 - Dense(
  (_dense): Sequential(
    (0): Flatten()
    (1): Linear(in_features=11264, out_features=1000, bias=True)
    (2): ReLU(inplace)
    (3): Linear(in_features=1000, out_features=100, bias=True)
    (4): ReLU(inplace)
    (5): Linear(in_features=100, out_features=1000, bias=True)
    (6): ReLU(inplace)
    (7): Linear(in_features=1000, out_features=11264, bias=True)
    (8): ReLU(inplace)
    (9): Unflatten()
  )
)
2018-12-12_16:11:39 - ConvDecoderDense(
  (_decoder): Sequential(
    (0): ConvTranspose2d(11264, 256, kernel_size=(3, 4), stride=(3, 3))
    (1): ReLU(inplace)
    (2): ConvTranspose2d(256, 128, kernel_size=(3, 3), stride=(3, 3))
    (3): ReLU(inplace)
    (4): ConvTranspose2d(128, 64, kernel_size=(3, 3), stride=(3, 3), output_padding=(1, 2))
    (5): ReLU(inplace)
    (6): ConvTranspose2d(64, 32, kernel_size=(4, 4), stride=(2, 2), output_padding=(1, 1))
    (7): ReLU(inplace)
    (8): ConvTranspose2d(32, 3, kernel_size=(8, 8), stride=(4, 4))
  )
)
2018-12-12_16:11:39 - ConvEncoder(
  (_encoder): Sequential(
    (0): Conv2d(3, 32, kernel_size=(8, 8), stride=(4, 4))
    (1): ReLU(inplace)
    (2): Conv2d(32, 64, kernel_size=(4, 4), stride=(2, 2))
    (3): ReLU(inplace)
    (4): Conv2d(64, 64, kernel_size=(3, 3), stride=(3, 3))
    (5): ReLU(inplace)
  )
)
2018-12-12_16:11:39 - ConvDecoder(
  (_decoder): Sequential(
    (0): ConvTranspose2d(64, 64, kernel_size=(3, 3), stride=(3, 3), output_padding=(1, 2))
    (1): ReLU(inplace)
    (2): ConvTranspose2d(64, 32, kernel_size=(4, 4), stride=(2, 2), output_padding=(1, 1))
    (3): ReLU(inplace)
    (4): ConvTranspose2d(32, 3, kernel_size=(8, 8), stride=(4, 4))
  )
)
2018-12-12_16:11:39 - Low embedding dimension is 100
2018-12-12_16:11:39 - High embedding dimension is 64 x 9 x 12
2018-12-12_16:11:43 - Generating 50000 train images
2018-12-12_16:16:57 - Generating 10000 test images
2018-12-12_16:18:34 - Start training
2018-12-12_16:20:38 - Loss epoch 1 | train 0.369868 | test 0.374651
2018-12-12_16:23:02 - Loss epoch 2 | train 0.345259 | test 0.586744
…
